chatbot_model.pth (torch, 64541 bytes, 6 tensors)

fc1.weight f4 [128, 52]
0	0xbdadc0ab	-0.08484014
1	0xbdb3a6ae	-0.08772026
2	0xbe0adfe4	-0.1356197
3	0xbc684133	-0.014175701
4	0x3d3deab0	0.046366394
5	0x3dd766da	0.10517664
6	0x3d59caf0	0.053172052
7	0xbe306f3f	-0.17229937
8	0xbe183738	-0.14864814
9	0xbe1d4dd1	-0.15361716
10	0x3d919e76	0.07110302
11	0xbe021b22	-0.12705663
12	0x3cdd3949	0.027004855
13	0x3e08ab0d	0.133465
14	0xbd24e346	-0.040255807
15	0x3c9c4f37	0.019080741
16	0xbd5f1000	-0.05445862
17	0xbe2b2f5e	-0.16717288
18	0x3e6613fd	0.22468562
19	0xbe1a0b11	-0.15043284
20	0x3d9b3ab6	0.075795576
21	0xbc413f94	-0.011794943
22	0x3b7fa219	0.003900653
23	0x3e564555	0.20924886
24	0x3d982202	0.074283615
25	0xbdef351b	-0.11680051
26	0xbc8faaec	-0.017537557
27	0xbe2a2391	-0.1661513
28	0xbe15b768	-0.14620745
29	0x3da7d120	0.08194184
30	0xbdc0ef66	-0.09420662
31	0x3d68cad8	0.056834072
32	0x3d07cb3c	0.033152804
33	0x3ca0d89a	0.019634534
34	0xbe1cdc29	-0.1531836
35	0x3d885b04	0.06657985
36	0x3d7cd008	0.06172183
37	0xbe188323	-0.14893775
38	0xbd546292	-0.051851816
39	0x3d2d014f	0.042237576
40	0xbdff5b31	-0.12468565
41	0x3d011aea	0.031519808
42	0xbdc899a8	-0.097949326
43	0xbd63da19	-0.055627916
44	0x3da9626b	0.08270725
45	0xbde99424	-0.11405209
46	0x3b59fb5c	0.0033261394
47	0x3e790ae5	0.24320562
48	0x3c2af190	0.01043357
49	0xbe0392da	-0.12848988
50	0xbe0ab805	-0.1354676
51	0x3ddfa257	0.10919636
52	0x3e46179a	0.19344941
53	0x3d343f23	0.044005524
54	0xbe070d5f	-0.13188694
55	0x3df5ef2d	0.1200851
56	0xbe28861c	-0.16457409
57	0xbe2f209d	-0.17102285
58	0x3d8e8243	0.06958439
59	0x3e34514d	0.17609139
60	0x3e82d064	0.25549614
61	0xbdb41978	-0.0879392
62	0x3e3742c3	0.17896561
63	0x3dceb7a4	0.100936204
64	0xbcd99f2c	-0.026565157
65	0xbe0cde3a	-0.13756648
66	0x3d9d213d	0.07672355
67	0x3d5f5040	0.05451989
68	0x3e1796ac	0.1480357
69	0x3e329f17	0.174435
70	0xbdc92bd2	-0.09822811
71	0x3df225c1	0.11823607
72	0xbbb945fa	-0.005654094
73	0xbca4998f	-0.020092754
74	0x3c86c4e1	0.016451301
75	0x3e26c91e	0.16287658
76	0x3d70ab58	0.058757156
77	0xbda4518a	-0.08023365
78	0xbdaa04cb	-0.083016954
79	0x3e5aa014	0.21350127
80	0xbdbf2d22	-0.0933478
81	0xbd8c097c	-0.068377465
82	0xbd0d54a9	-0.034504566
83	0xbcf80c8b	-0.030279418
84	0xbda11a28	-0.07866317
85	0x3c455610	0.012044445
86	0xbd4c8090	-0.049927294
87	0x3c0255da	0.007955039
88	0xbc909e9c	-0.017653756
89	0xbd2814e8	-0.041035563
90	0xbd954d7f	-0.07290172
91	0x3e0b2c57	0.13591133
92	0xbdedfda3	-0.11620643
93	0x3cf1b7d0	0.029506594
94	0x3d226326	0.039645337
95	0x3c91e868	0.017811015
96	0xbe004ba4	-0.12528855
97	0x3d737e57	0.05944666
98	0x3d8e7801	0.06956483
99	0x3d1d85dc	0.038457736
100	0x3cb0af75	0.02156804
101	0xbe186bfb	-0.14884941
102	0xbdc7de94	-0.0975925
103	0xbca035e7	-0.019556953
104	0x3dca9d6d	0.09893308
105	0xbd8b4166	-0.06799583
106	0xbc87adec	-0.016562425
107	0x3dfa2763	0.12214544
108	0xbd822f13	-0.06356635
109	0xbd74779c	-0.05968438
110	0x3d4dfc86	0.050289653
111	0x3d80c1b0	0.06286943
112	0xbac3d680	-0.0014941245
113	0xbc83ade6	-0.016074132
114	0xbd6cb053	-0.057785343
115	0xbd2caccb	-0.042156976
116	0x3d92d618	0.071697414
117	0xbe045a7e	-0.12925145
118	0x3d240b3b	0.040049773
119	0x3d640ad6	0.055674396
120	0x3c0afbc6	0.008482879
121	0x3db5378b	0.088484846
122	0x3d8463ac	0.064643234
123	0x3de2c2eb	0.11072334
124	0xbd9f2ab8	-0.0777182
125	0xbde00832	-0.10939063
126	0x3b106bc7	0.0022036897
127	0xbd29e340	-0.041476488
128	0x3d8a31ac	0.067477554
129	0xbda99f07	-0.08282285
130	0x3e0cdc74	0.13755971
131	0xbdc98de6	-0.09841518
132	0x3df9a9cf	0.121905915
133	0xbc13a786	-0.009012109
134	0x3de82f11	0.11337102
135	0x3e25da5a	0.16196576
136	0x3e494b05	0.19657524
137	0x3dac430b	0.08411225
138	0xbde9b205	-0.11410908
139	0xbddb4976	-0.10707371
140	0x3cdde531	0.027086826
141	0xbe088869	-0.13333286
142	0x3e29eaf0	0.16593528
143	0xbd93ffca	-0.07226522
144	0x3e83e2cd	0.25758973
145	0x3cd65672	0.026164267
146	0xbd4184e8	-0.04724589
147	0xbdea0799	-0.114272304
148	0xbe00e3f8	-0.12586963
149	0x3dab4f1f	0.083647005
150	0xbd84f002	-0.0649109
151	0x3dca6be2	0.09883858
152	0xb9113318	-0.00013847311
153	0x3de43558	0.11142987
154	0xbd0cb376	-0.034350835
155	0xbd95a5f0	-0.07307041
156	0xbcd4895e	-0.025944408
157	0xbaea856d	-0.0017892547
158	0xbda0b93d	-0.078478314
159	0x3dd24fd1	0.1026913
160	0xbc8efee8	-0.017455533
161	0x3dd79f6c	0.10528454
162	0xbd0c4317	-0.03424367
163	0x3dd74b54	0.105124146
164	0xbd895a5b	-0.06706687
165	0x3d5dbda2	0.054135926
166	0xbc9d7641	-0.019221427
167	0xbe2a1386	-0.1660901
168	0xbc531ba3	-0.012885007
169	0xbd33a88f	-0.043861922
170	0x3cd042ae	0.02542242
171	0x3d452385	0.048129577
172	0x3d988f08	0.07449156
173	0x3d10092c	0.035164997
174	0x3d8eefb8	0.069793165
175	0x3df50ce9	0.11965353
176	0x3e32dc46	0.1746684
177	0x3beebac2	0.007285447
178	0x3c8b0c5f	0.016973672
179	0xbdbd5a98	-0.09245795
180	0x3d4585c8	0.048223287
181	0x3c8329eb	0.016011199
182	0x3dec7880	0.11546421
183	0x3b9a211c	0.004703654
184	0x3bb1f6ef	0.005431048
185	0x3d8499c1	0.06474639
186	0xbe05306f	-0.13006757
187	0xbdf17d9b	-0.117915355
188	0xbc06b370	-0.008221492
189	0x3ce5f660	0.028071582
190	0xbd56001b	-0.052246194
191	0x3db60ff7	0.08889764
192	0xbe1f59e0	-0.15561628
193	0xbcb4b371	-0.02205822
194	0xbcde4fd3	-0.027137673
195	0xbd590706	-0.052985214
196	0xbde8aae6	-0.11360721
197	0xbc45bd6b	-0.012069087
198	0x3dfb86de	0.12281583
199	0xbda9d95d	-0.08293412
200	0x3c925e31	0.01786718
201	0xbe1a6544	-0.15077692
202	0xbdebdef4	-0.11517134
203	0x3cfe1a4a	0.031018395
204	0xbe042896	-0.12906107
205	0xbdeabb5e	-0.11461519
206	0x3def9dde	0.11700033
207	0x3d866774	0.06562701
208	0x3d8ace2d	0.06777606
209	0xbdeab314	-0.11459938
210	0x3d26bf6a	0.04070989
211	0xbe4746b7	-0.1946057
212	0x3baa6bff	0.0052008624
213	0x3d672dae	0.056440048
214	0x3dc4e7a2	0.09614493
215	0xb9df7687	-0.00042622184
216	0x3e22e27a	0.15906706
217	0x3d609de3	0.054838073
218	0x3e83a195	0.25709215
219	0x3dd75a91	0.10515321
220	0xbd3be4d7	-0.045872536
221	0x3dfd0b77	0.12355702
222	0xbd9db6c6	-0.07700877
223	0xbe1072d7	-0.14106308
224	0x3e1a4c4f	0.15068172
225	0xbc8c5e17	-0.01713471
226	0xbde77fce	-0.11303674
227	0xbe4b9b41	-0.19883443
228	0x3df86f52	0.12130608
229	0x3e1f4683	0.15554242
230	0x3e412280	0.18860817
231	0x3d6c7962	0.057732947
232	0x3e134eb8	0.14385498
233	0xbd641724	-0.05568613
234	0x3d4b4a3f	0.049631353
235	0x3e14a485	0.14515884
236	0xbbda8549	-0.006668721
237	0xbdfa0f8b	-0.12209996
238	0x3d8afd82	0.06786634
239	0x3d97d108	0.074129164
240	0x3d5b6f01	0.05357266
241	0xba89ab80	-0.0010503381
242	0x3e3f792b	0.18698566
243	0x3da725d8	0.08161515
244	0x3ddeb170	0.10873687
245	0xbe2b4184	-0.16724211
246	0xbdbff982	-0.09373762
247	0xbcb78000	-0.022399902
248	0xbde2ef92	-0.11080851
249	0xbe2791a3	-0.1636415
250	0x3e08e3ed	0.13368197
251	0xbbc3108c	-0.0059529003
252	0x3d1f1c5b	0.0388454
253	0x3e6e05f5	0.2324446
254	0xbe18812b	-0.14893024
255	0x3d3b2257	0.045687046

fc1.bias f4 [128]
0	0x3e303392	0.17207173
1	0x3c018b8a	0.007906804
2	0x3da3b919	0.07994289
3	0x3e8c7b51	0.27437833
4	0x3d68e307	0.056857135
5	0x3e269077	0.16266046
6	0x3dc8de17	0.09807985
7	0x3e1d801a	0.15380898
8	0x3da03dab	0.07824262
9	0xbc3efb1e	-0.011656551
10	0xbe0fa5d8	-0.14028108
11	0xbbabd08e	-0.0052433675
12	0x3d640100	0.055665016
13	0x3d4046b9	0.046942446
14	0xbd0af49e	-0.03392469
15	0x3dda8cf5	0.10671417
16	0x3e784365	0.24244459
17	0x3d1fc5c7	0.039006975
18	0x3cd2d753	0.02573744
19	0x3e502f2e	0.20330498
20	0xbd8667eb	-0.065627895
21	0x3dbe2f9c	0.092864245
22	0x3dea52b5	0.11441556
23	0x3e450245	0.19239147
24	0xbd7d67af	-0.06186646
25	0x3e48a59a	0.19594422
26	0x3e4a0dae	0.19731781
27	0x3bcb6c2a	0.0062079625
28	0x3e810660	0.25200176
29	0x3ca39efc	0.01997327
30	0x3e7052c8	0.23469079
31	0x3d12b5f9	0.035818074
32	0x3e6d6a34	0.23185045
33	0x3dfd5662	0.12369992
34	0x3d51f764	0.05126132
35	0x3dec766d	0.115460254
36	0xbcfa7402	-0.030572895
37	0x3e4a605f	0.19763325
38	0x3e55e0fc	0.20886606
39	0x3cdb1f0b	0.0267482
40	0x3d442338	0.04788515
41	0x3d0577b9	0.03258488
42	0xbc29680a	-0.010339746
43	0x3e0cfe1a	0.13768807
44	0x3cba942f	0.022775738
45	0x3d047a7f	0.032343384
46	0xbd2153ec	-0.039386675
47	0x3d86df43	0.065855525
48	0x3d9106f6	0.07081406
49	0x3e218400	0.1577301
50	0x3dd38e3b	0.10329863
51	0xbcd07dd1	-0.025450619
52	0x3cfac732	0.030612562
53	0x3d2c5f92	0.04208333
54	0xbd339d4e	-0.04385119
55	0x3e5e1fa4	0.21691757
56	0x3d2aa3b4	0.041660026
57	0x3e163edd	0.14672418
58	0x3e6e0f58	0.2324804
59	0xbddbbf1f	-0.10729813
60	0x3e817976	0.2528798
61	0x3d80b2c8	0.062841
62	0x3ddd8921	0.10817171
63	0x3e0a7c76	0.1352404
64	0x3dc9b032	0.0984806
65	0x3dfe4d44	0.12417081
66	0x3e13ff52	0.14452866
67	0xbd389695	-0.04506548
68	0x3e4390d5	0.19098218
69	0x3dfc62a0	0.12323499
70	0x3e2be7ab	0.16787593
71	0xbb3d7f36	-0.0028914935
72	0x3e0cd51a	0.13753167
73	0x3d4c966d	0.049948145
74	0xbcfacfac	-0.030616604
75	0xbc6ff851	-0.014646606
76	0x3e652d6d	0.2238061
77	0x3e82bb9b	0.25533757
78	0x3d9fe9d7	0.07808273
79	0x3e20ab01	0.15690233
80	0x3d447708	0.04796508
81	0x3e7d4f1c	0.24737209
82	0x3d83ac1d	0.064293124
83	0x3dd63ea1	0.10461164
84	0x3e12850d	0.14308567
85	0x3dbcbda8	0.092158616
86	0x3cea1f36	0.028579336
87	0xbc9f674b	-0.019458434
88	0x3d9cad3f	0.076502316
89	0x3e1794eb	0.14802901
90	0x3d3d75be	0.046254866
91	0xbc313997	-0.010816953
92	0xbc64ebf8	-0.013972275
93	0x3e044d54	0.12920123
94	0x3e256864	0.16153103
95	0x3e11ba32	0.14231184
96	0x3d18ad14	0.037274435
97	0x3e6ba3b7	0.23011671
98	0x3de4ef4d	0.111784555
99	0x3e4466eb	0.19179885
100	0x3d1b9c89	0.03799108
101	0x3e0395f5	0.12850173
102	0x3e2b61d5	0.16736539
103	0xbc28050b	-0.010255109
104	0x3c9032dc	0.017602377
105	0x3c565e94	0.013084073
106	0x3cb799ac	0.022412144
107	0x3d89096c	0.0669125
108	0x3d7c92fd	0.061663616
109	0x3c8af0c8	0.016960517
110	0x3d9fc40f	0.07801067
111	0xbdc77aac	-0.09740195
112	0x3e23cc5b	0.15995924
113	0x3c44dcf7	0.012015573
114	0x3e5d9a8c	0.21640986
115	0x3e25589c	0.16147083
116	0x3db7ca3c	0.0897412
117	0x3e82108e	0.25403255
118	0x3dc0bafd	0.09410665
119	0x3deb27a9	0.11482174
120	0xbc25825f	-0.010101884
121	0x3dccabfe	0.099937424
122	0x3e0cc79b	0.13748018
123	0x3e79081a	0.24319497
124	0x3e44d213	0.19220762
125	0x3abfecfa	0.0014642768
126	0xbd54bbd2	-0.051936932
127	0x3e6b04ec	0.22951096

fc2.weight f4 [64, 128]
0	0x3e030c5e	0.12797686
1	0x3e17f89b	0.14840929
2	0xbda9c81e	-0.082901224
3	0x3e54f2ec	0.20795792
4	0x3e19bbd3	0.15013056
5	0x3c335807	0.01094628
6	0x3d1c966f	0.038229402
7	0x3daa1946	0.08305602
8	0xbd24653d	-0.04013561
9	0x3cd498d3	0.025951779
10	0x3e188fab	0.14898555
11	0xbd328871	-0.043587152
12	0xbc9b4f31	-0.01895866
13	0xbdc23a46	-0.09483771
14	0x3cb97ce6	0.022642564
15	0x3d94c683	0.072644256
16	0x3dcbf9aa	0.09959729
17	0x3db7d62d	0.08976398
18	0xbdd4726c	-0.10373387
19	0x3e3ef50a	0.18648162
20	0x3cf3ebca	0.029775519
21	0x3e19337c	0.14961046
22	0x3d921952	0.07133736
23	0x3df4c2ff	0.11951255
24	0xbd486049	-0.04891995
25	0x3e0c7c89	0.13719381
26	0x3e237d41	0.1596575
27	0x3ddaaeaf	0.106778495
28	0x3dd3f683	0.10349753
29	0xbbe98675	-0.007126624
30	0x3dfd37d5	0.12364165
31	0xbdc2ba80	-0.09508228
32	0x3d2b3afd	0.041804302
33	0x3d5c41d3	0.053773712
34	0x3db46a0c	0.08809289
35	0x3d6e1814	0.05812843
36	0xbd0391a6	-0.032121323
37	0x3db4c9b7	0.088275366
38	0x3e2a749b	0.16646044
39	0x3e176c5f	0.14787434
40	0xbd8fcc9c	-0.07021448
41	0xbd1c3aba	-0.038141944
42	0xbc501261	-0.012699694
43	0x3da51a43	0.0806165
44	0x3d9cda87	0.07658868
45	0x3e11b363	0.14228587
46	0x3d88ffd5	0.06689421
47	0xbd8489df	-0.06471609
48	0x3d8d175e	0.068892226
49	0x3da8a2d0	0.08234179
50	0x3d1dc108	0.038514167
51	0xbbdbd81a	-0.006709111
52	0x3d8f90f5	0.0701007
53	0x3da5ba01	0.08092118
54	0x3de01194	0.10940853
55	0x3dfe765e	0.124249205
56	0x3d0fd142	0.035111673
57	0xbd6e1845	-0.058128614
58	0x3d29ec4e	0.041485123
59	0x3c4da1b3	0.012550759
60	0x3d81c895	0.06337086
61	0x3d036795	0.032081205
62	0x3bf18e8a	0.0073717283
63	0xbd5499bd	-0.05190443
64	0xbd1c2d67	-0.038129237
65	0x3d40858c	0.04700236
66	0x3e60c09a	0.21948472
67	0x3d682517	0.056675997
68	0xbd55e741	-0.052222494
69	0x3df6e13d	0.120546795
70	0x3e6d7cdd	0.23192163
71	0x3d72bec2	0.059263952
72	0xbd829ec4	-0.063779384
73	0xbd5260dd	-0.051361907
74	0x3d09291d	0.033486474
75	0x3cbec1ff	0.023285864
76	0x3e71e9a4	0.23624283
77	0x3e395a62	0.18100885
78	0x3cc0f7bd	0.02355563
79	0x3d1b1f98	0.037871927
80	0x3decc598	0.115611255
81	0x3dd7e3d3	0.10541501
82	0x3dad5369	0.08463175
83	0xbcfa728f	-0.030572204
84	0x3e3d09b0	0.18460727
85	0x3e490cba	0.19633761
86	0x3e4e29ac	0.20133084
87	0xbdecfd8a	-0.11571796
88	0xbcd7bc28	-0.026334837
89	0x3dff1735	0.12455598
90	0xbd676e0a	-0.056501426
91	0x3e23780f	0.15963767
92	0x3df5bd92	0.11999048
93	0x3e16fca7	0.14744817
94	0x3dca7700	0.09885979
95	0xbcde42d7	-0.027131481
96	0xbd9982cf	-0.07495653
97	0x3e6814d2	0.22664192
98	0x3c02f722	0.007993491
99	0x3ce36872	0.027759764
100	0xbc33ec31	-0.010981605
101	0x3e508cfa	0.20366278
102	0x3decc9c3	0.115619205
103	0xbc0ca4a1	-0.008584172
104	0xbc963b4e	-0.018338826
105	0x3dbcebec	0.09224686
106	0x3d8cb8c1	0.068711765
107	0x3db24e44	0.08706334
108	0x3e1a98bb	0.15097325
109	0x3e3b3eb2	0.18285635
110	0xbd8d3ee1	-0.06896759
111	0xbcddac7b	-0.027059784
112	0x3e01fdc6	0.12694463
113	0x3e3d5eca	0.1849319
114	0x3e15dd49	0.14635195
115	0x3e3aa936	0.18228611
116	0x3e1ea4f7	0.15492617
117	0x3d553f91	0.052062575
118	0x3d0e1419	0.034687135
119	0x3d0db3cf	0.034595307
120	0xbcf72087	-0.030166877
121	0x3d750f58	0.059829086
122	0x3e169400	0.14704895
123	0x3da45470	0.08023918
124	0x3e0630f5	0.13104613
125	0xbc5e3d44	-0.013564412
126	0x3d96167f	0.073285095
127	0x3e1f9690	0.15584779
128	0x3d5bf1f5	0.053697545
129	0xbd7ee5cf	-0.06223088
130	0xbd4a9338	-0.049456805
131	0x3d996046	0.07489066
132	0xbc974e77	-0.018470032
133	0x3e09ab7d	0.13444324
134	0xbc18b305	-0.009320025
135	0x3d36e9ea	0.04465667
136	0xbe258839	-0.16165246
137	0xbd2a9610	-0.041647017
138	0x3e066bf3	0.13127117
139	0x39046a42	0.00012628085
140	0xbc65f568	-0.01403556
141	0xbd92209e	-0.071351275
142	0xbdd6688a	-0.10469158
143	0x3d4bbc9d	0.049740423
144	0x3e0c2420	0.13685656
145	0xbdd52eab	-0.10409292
146	0xbe037400	-0.12837219
147	0x3dc4f576	0.096171305
148	0x3e01b010	0.12664819
149	0xbdec8535	-0.11548845
150	0xbd32b6ba	-0.043631293
151	0x3e53bb9b	0.20677035
152	0xbe2480e7	-0.16064797
153	0x3e10165c	0.1407103
154	0x3d36da4a	0.04464177
155	0x3d2d4f73	0.042312097
156	0x3d91049e	0.07080959
157	0xbc999faa	-0.018752892
158	0x3df81c16	0.12114732
159	0xbd9fc331	-0.07800902
160	0x3dd056c1	0.10172797
161	0x3dc8d201	0.0980568
162	0xbb10f89c	-0.002212084
163	0x3dc74f59	0.09731931
164	0x3d7c93b4	0.0616643
165	0x3de3b49a	0.111184314
166	0x3daefd1a	0.08544369
167	0xbd7703a5	-0.06030621
168	0xbc9bc4d8	-0.01901476
169	0xbd94cad1	-0.07265247
170	0xbc775c82	-0.015097739
171	0xbdd385da	-0.103282645
172	0xbcf81b31	-0.030286403
173	0xbd808e99	-0.06277198
174	0xbd8964b7	-0.06708663
175	0xbda6fb60	-0.08153415
176	0x3c08a547	0.008340186
177	0xbd81e561	-0.06342579
178	0xb907b73b	-0.00012942862
179	0xbd836804	-0.06416324
180	0x3da15717	0.07877939
181	0xbd36eb2b	-0.044657867
182	0x3d8c4a75	0.06850139
183	0x3e24f8c8	0.16110528
184	0xbd4efaaf	-0.05053204
185	0x3d39eff4	0.045394853
186	0x3dcdcfc0	0.10049391
187	0x3d264c51	0.040600125
188	0x3ddc2b8d	0.10750494
189	0x3cf9f33a	0.030511487
190	0x3c3f1514	0.01166274
191	0x3c9dbe92	0.01925591
192	0xbdb8f6c8	-0.09031445
193	0x3dc7f306	0.0976315
194	0x3e2f70f9	0.1713294
195	0xbd248a31	-0.040170852
196	0x3bebe476	0.0071988655
197	0x3e0d23a6	0.1378313
198	0x3e36a05b	0.17834608
199	0xbd898c67	-0.06716233
200	0xbdb520ff	-0.08844184
201	0xbd30b792	-0.043143816
202	0xbd55ca0c	-0.05219464
203	0xbdb9ec43	-0.090782665
204	0x3dc71de6	0.097224995
205	0x3e28d17a	0.16486159
206	0xbdab0cf6	-0.083520815
207	0x3e068abe	0.13138863
208	0x3dc8dec2	0.09808113
209	0x3d3678d5	0.04454883
210	0x3bb4746a	0.0055070417
211	0x3b005d28	0.0019586775
212	0x3e4e3262	0.20136407
213	0x3e355a85	0.17710312
214	0x3c1192d9	0.008885109
215	0xbe1aecfd	-0.15129466
216	0xbd95737a	-0.07297416
217	0x3d338571	0.04382843
218	0x3d87762f	0.066143386
219	0x3cb89495	0.022531787
220	0xbbb91e7a	-0.005649385
221	0xbde3ed1e	-0.11129211
222	0x3db5b783	0.08872893
223	0x3d454cce	0.04816895
224	0xbd898f99	-0.06716842
225	0x3d00c918	0.031441778
226	0xbd49adb8	-0.049237937
227	0x3de7ee83	0.113247894
228	0x3d0d6980	0.03452444
229	0xbd3190fc	-0.04335116
230	0xbb20f9be	-0.002456292
231	0xbd118c60	-0.035534263
232	0x3de5dff4	0.11224356
233	0xbcf43298	-0.029809281
234	0xbd92eba3	-0.071738504
235	0x3e53b6d5	0.20675214
236	0x3db48ff8	0.08816522
237	0xbc515edf	-0.012778967
238	0x3dd55497	0.10416525
239	0xbddefea6	-0.10888414
240	0xbc626867	-0.013818837
241	0xbd7cd815	-0.06172951
242	0x3a41eb66	0.0007397443
243	0x3d6f585f	0.058433887
244	0x3af383ea	0.0018578742
245	0xbcfa7846	-0.030574929
246	0x3da66413	0.081245564
247	0xbddb8ce3	-0.107202314
248	0xbddbd5e5	-0.107341565
249	0x3d7e70f3	0.062119436
250	0x3d2d0935	0.04224511
251	0x3e1bc48b	0.15211694
252	0x3e141f25	0.14465006
253	0x3cf044c0	0.029329658
254	0xbdab216c	-0.08355984
255	0x3dcc82af	0.099858634

fc2.bias f4 [64]
0	0x3daf94a4	0.08573273
1	0x3dcca4d8	0.09992379
2	0x3dcd933b	0.100378476
3	0x3d3849cc	0.044992253
4	0x3b968e83	0.0045946254
5	0x3e22ef13	0.15911512
6	0x3d3f35b7	0.046682086
7	0x3df357dc	0.11881992
8	0x3c43d04c	0.011951517
9	0x3c33aaf1	0.010966049
10	0xbd79b782	-0.060966022
11	0xbd0922cb	-0.033480447
12	0xbca86454	-0.020555653
13	0x3ba5b5e0	0.0050570816
14	0x3df3f26d	0.119114734
15	0xbcbc9fe9	-0.02302547
16	0x3db92e7d	0.0904207
17	0x3d4f200c	0.05056767
18	0x3ae4eba3	0.0017465245
19	0x3d57684e	0.052589707
20	0xbd18bc4d	-0.037288953
21	0xbc98deb2	-0.018660877
22	0x3aca3896	0.0015428241
23	0xbc133dce	-0.008986903
24	0x3e00271f	0.12514924
25	0xbd1c8964	-0.038216963
26	0x3dd35e34	0.10320702
27	0xbc9e1551	-0.019297274
28	0x3df70d01	0.12063027
29	0xbcc68e0a	-0.024237651
30	0x3bcf9101	0.0063344245
31	0x3daf921d	0.08572791
32	0xbd0061c0	-0.03134322
33	0x3da6e188	0.081484854
34	0x3e0e6d8b	0.13908975
35	0x3dd085b4	0.10181752
36	0x3df6ff7e	0.1206045
37	0x3d509157	0.050919857
38	0x3d4a4f9d	0.04939233
39	0xbca3f5d6	-0.020014685
40	0x3d7b723c	0.06138824
41	0x3ca0f13a	0.019646276
42	0xbddb7d11	-0.10717214
43	0x3c4950d0	0.012287334
44	0x3c00053a	0.007813746
45	0x3d14435c	0.03619705
46	0x3d6166a3	0.055029523
47	0xbd0d9a51	-0.034570996
48	0xbbef6e68	-0.0073068626
49	0xbbb06d33	-0.0053841113
50	0x3dd98b7e	0.10622309
51	0xbb9e2ba5	-0.00482698
52	0x3d6a7edb	0.057249885
53	0x3e0f13e8	0.13972437
54	0x3ddcccff	0.107812874
55	0x3d5b42de	0.053530566
56	0xbcbcef21	-0.023063244
57	0x3d49a62b	0.049230736
58	0x3c875946	0.016522061
59	0x3d93a6d6	0.07209556
60	0x3df94919	0.121721454
61	0x3d243d7e	0.040097706
62	0x3d4724c3	0.048619043
63	0x3d9a7722	0.07542254

fc3.weight f4 [5, 64]
0	0x3c8cadab	0.017172655
1	0x3d301b3a	0.042994715
2	0xbe47f68b	-0.19527642
3	0xbc043f10	-0.008071676
4	0xbe89deaf	-0.26927707
5	0x3c533c60	0.0128928125
6	0x3e2c648a	0.16835228
7	0x3d775550	0.060384095
8	0x3e8920b2	0.26782757
9	0xbe82a013	-0.25512752
10	0x3bbf395e	0.005835696
11	0x3e533820	0.20626879
12	0x3d333f5f	0.043761607
13	0xbab002f0	-0.001342861
14	0xbe9199df	-0.28437707
15	0xbe896b6d	-0.26839772
16	0x3e3bb1a2	0.1832948
17	0x3e1c0816	0.1523746
18	0x3dd546e6	0.104139134
19	0xbdf1dd02	-0.11809732
20	0xbe386ae2	-0.18009523
21	0x3d8bd579	0.06827826
22	0x3e2a3b83	0.16624264
23	0x3e094090	0.13403535
24	0x3df49db8	0.11944145
25	0xbe31dcc4	-0.17369372
26	0x3e27bb2a	0.16379991
27	0x3d14b003	0.03630067
28	0x3e45e869	0.19326939
29	0xbe80a6bf	-0.25127217
30	0x3e671718	0.22567403
31	0x3d07308f	0.033005293
32	0xbe91cc2c	-0.28476083
33	0x3dab688f	0.08369552
34	0xbd79d389	-0.06099275
35	0x3e409305	0.18806084
36	0x3d287194	0.04112394
37	0xbe5eca1d	-0.21756788
38	0xbe8a3ca8	-0.26999402
39	0xbdebe888	-0.11518961
40	0x3df8c860	0.121475935
41	0xbde975e5	-0.1139944
42	0xbd466369	-0.04843465
43	0x3d2cc402	0.042179115
44	0x3e2e8bce	0.17045519
45	0x3ca0874c	0.019595765
46	0xbe54c9e0	-0.20780134
47	0xbe198c84	-0.14995009
48	0x3e07fe21	0.13280536
49	0x3dadba19	0.08482761
50	0xbe5d080a	-0.21585098
51	0xbe70b4d6	-0.23506483
52	0x3d891f8d	0.06695471
53	0x3ca0869f	0.019595442
54	0xbe991dff	-0.29905698
55	0x3d8f9050	0.07009947
56	0x3e5403ab	0.20704524
57	0x3e0f8bb1	0.14018132
58	0x3e0fc8f9	0.14041509
59	0xbd997057	-0.0749213
60	0xbe279a1f	-0.16367386
61	0xbdbbd23a	-0.09170957
62	0x3e1abec7	0.15111838
63	0x3e21dc8f	0.15806793
64	0x3d44b425	0.04802336
65	0x3e393318	0.18085897
66	0xbe3fae1c	-0.18718761
67	0x3e5c2f91	0.2150252
68	0xbe846a48	-0.25862336
69	0x3dfc97ae	0.12333618
70	0x3e0ae238	0.13562858
71	0x3e184bd0	0.1487267
72	0xbe789a97	-0.24277721
73	0xbd81290c	-0.06306657
74	0x3bc1c63c	0.005913524
75	0xbe03f776	-0.12887368
76	0xbeceb06c	-0.40368974
77	0xbc8fb8ce	-0.017544176
78	0xbd8e451e	-0.06946777
79	0xbdde1414	-0.10843673
80	0xbcafe251	-0.02147022
81	0x3da3a815	0.079910435
82	0x3e004a96	0.12528452
83	0x3e6f247c	0.23353761
84	0xbe84d5a1	-0.25944236
85	0x3d85491a	0.06508084
86	0xbe085f91	-0.13317706
87	0x3de3c228	0.11121017
88	0xbd5f0094	-0.05444391
89	0xbe17c6ad	-0.14821883
90	0xbe568642	-0.20949653
91	0x3e176290	0.14783692
92	0x3dc8c908	0.09803969
93	0xbe540c3a	-0.20707789
94	0xbdec917e	-0.11551188
95	0xbeb93786	-0.36175174
96	0x3e1b412f	0.15161584
97	0x3dcb7820	0.099350214
98	0xbe9ad5e9	-0.30241325
99	0xbe3f4614	-0.18679076
100	0x3e13d4a3	0.14436583
101	0xbe96ea3d	-0.29475585
102	0xbdd2e29c	-0.102971286
103	0xbe15c443	-0.14625649
104	0x3daa4ad9	0.08315057
105	0xbe148c39	-0.14506616
106	0xbdc29a72	-0.09502114
107	0xbdd6f287	-0.10495477
108	0x3e23e55a	0.1600546
109	0x3e24f10f	0.16107582
110	0xbe0ca4b0	-0.13734698
111	0xbe911cda	-0.28342324
112	0x3d1235de	0.035695903
113	0x3db64af8	0.08901018
114	0x3e6a44fa	0.22877875
115	0x3e453a89	0.1926061
116	0xbe4f0b7d	-0.20219226
117	0x3e1d9e6e	0.15392467
118	0x3e5419d0	0.20712972
119	0xbe304b99	-0.17216338
120	0x3da3e209	0.08002097
121	0xbe2dc1d8	-0.16968477
122	0x3e12a923	0.14322333
123	0xbe82a755	-0.2551829
124	0x3e7e61a9	0.24841942
125	0x3dac40d6	0.08410804
126	0xbe8b9403	-0.2726136
127	0xbe9a6f68	-0.3016312
128	0xbb553e6e	-0.0032538432
129	0xbe671811	-0.22567774
130	0x3e4785da	0.19484654
131	0xbe107fb2	-0.14111212
132	0xbdaae60f	-0.083446614
133	0xbe7fa40a	-0.2496492
134	0xbe321490	-0.17390656
135	0x3e3e6f84	0.18597227
136	0xbe318ced	-0.17338915
137	0x3e6154b9	0.22004975
138	0xbe0d215c	-0.13782257
139	0xbddd8734	-0.108168036
140	0xbe37a8ed	-0.17935534
141	0x3b6234a9	0.0034516251
142	0x3e6dff35	0.23241885
143	0xbe165108	-0.14679348
144	0xbe550905	-0.20804222
145	0xbea063d6	-0.3132617
146	0xbe940cd6	-0.28916043
147	0x3d61065b	0.0549377
148	0x3d1b9501	0.037983898
149	0xbd0c4742	-0.034247644
150	0xbe871492	-0.2638288
151	0xbdd84d99	-0.105616756
152	0x3de37760	0.11106753
153	0xbe1b3d76	-0.15160164
154	0x3dfad35d	0.122473456
155	0xbe6bd8ba	-0.23031893
156	0xbe42dd76	-0.19029793
157	0xbe742dc4	-0.23845583
158	0x3e1e87f1	0.15481545
159	0x3e4571b2	0.19281653
160	0x3cf5fed1	0.030028732
161	0xbe58b7a6	-0.21163806
162	0x3e1298d7	0.14316116
163	0xbe541d56	-0.20714316
164	0x3e120ee7	0.14263497
165	0x3e1a0f60	0.15044928
166	0x3e23d4fe	0.15999219
167	0xbe4cd196	-0.20001826
168	0xbd740487	-0.05957463
169	0xbe297873	-0.16549854
170	0xbdb2ecfa	-0.08736606
171	0xbe7eb897	-0.24875103
172	0xbe49b381	-0.19697382
173	0xbcb3eb61	-0.021962823
174	0xbde78c9d	-0.11306117
175	0x3ca407eb	0.020023307
176	0xbe14efcc	-0.145446
177	0xbe9bdbdb	-0.30441174
178	0x3e3faf07	0.18719111
179	0x3e1239f8	0.14279926
180	0xbe66d143	-0.22540765
181	0xbe0cf94c	-0.13766974
182	0x3e3afad5	0.18259747
183	0xbe002560	-0.12514257
184	0xbe800253	-0.25001773
185	0xbe4ce8bc	-0.20010656
186	0xbe8df98a	-0.27729446
187	0x3e07b1e6	0.13251457
188	0xbdb869db	-0.09004565
189	0xbe35147d	-0.17683597
190	0xbe69b05c	-0.22821182
191	0x3db5d3cf	0.0887829
192	0xbcb2b0df	-0.021812854
193	0xbe46ea67	-0.19425355
194	0x3e3b2d54	0.1827901
195	0xbe88fbc2	-0.26754576
196	0x3debcae2	0.11513306
197	0xbc47a421	-0.0121851275
198	0x3d817e99	0.06322975
199	0xbe86387c	-0.2621497
200	0x3e0b194e	0.13583872
201	0xbe9946a0	-0.29936695
202	0x3c8dadf6	0.017294865
203	0xbe05f8c4	-0.13083178
204	0x3e100118	0.14062917
205	0xbeaeb37b	-0.34121308
206	0x3cb9a571	0.022661896
207	0x3e46208e	0.19348356
208	0xbe8b11ba	-0.27161962
209	0x3de1d65a	0.110272124
210	0x3debbdf4	0.1151084
211	0xbe7d7b43	-0.24754052
212	0x3e7da78d	0.24770947
213	0x3dc1e83a	0.09468122
214	0x3deb63cd	0.11493645
215	0xbe3003a2	-0.17188886
216	0xbe9c1232	-0.30482632
217	0x3e41eb2b	0.18937366
218	0xbe2e385f	-0.17013691
219	0x3e03bf0f	0.12865852
220	0xbe0dc0d6	-0.13843092
221	0x3dba4a45	0.09096197
222	0xbdf00926	-0.11720495
223	0x3d783909	0.060601268
224	0xbd654531	-0.05597419
225	0xbe78b7d1	-0.2428887
226	0xbe3963d7	-0.18104492
227	0xbe6b14c8	-0.22957146
228	0x3d9f7674	0.07786265
229	0x3dc4df49	0.09612901
230	0xbce515e3	-0.027964538
231	0xbe29fc86	-0.16600236
232	0xbe70d92e	-0.23520347
233	0x3e1b2612	0.15151241
234	0x3d49458b	0.049138587
235	0x3e4ca147	0.19983397
236	0xbdeacfc7	-0.11465412
237	0x3e06b4a6	0.1315485
238	0x3e02179e	0.12704322
239	0x3e613f3b	0.21996777
240	0xbe59ee05	-0.21282203
241	0xbdf5a665	-0.11994628
242	0xbd81394e	-0.06309758
243	0xbe81e36a	-0.25368816
244	0xbe8806a7	-0.26567575
245	0x3ba98610	0.005173452
246	0x3d056422	0.032566197
247	0xbde27874	-0.11058131
248	0xbdeef92e	-0.11668621
249	0xbe5d5dcf	-0.21617816
250	0xbd1f8b2a	-0.038951077
251	0xbe72229c	-0.23646015
252	0x3c4de4d5	0.012566765
253	0xbe63868a	-0.22219291
254	0xbc17a9c4	-0.009256784
255	0xbe7227c0	-0.23647976

fc3.bias f4 [5]
0	0x3cb6a4d0	0.022295386
1	0x3cffa152	0.031204853
2	0x3d0fb181	0.03508139
3	0x3d80fce4	0.06298235
4	0x3d14a34e	0.036288552
